masigster/SWP - Standardy w Projektowaniu Systemów Dialogowych/lab56/lab6/source/data.pth (torch, 8810 bytes, 6 tensors)

l1.weight f4 [8, 127]
-0.47789586 0.36516443 -0.22477266 -0.17806026 0.6818335 0.3543287 0.4800108 -0.30893508
0.42862555 0.5857483 0.34595406 0.1354535 0.24437493 0.10631394 0.34834808 -0.3670415
0.2079759 0.45406055 -0.21250159 -0.7004481 -0.2649244 -0.45897943 -0.39595005 0.29805833
-0.17199995 0.07614104 -0.20698701 0.41207936 0.405694 0.7046282 0.34395725 -0.35055408
-0.46863323 0.19631498 0.05359624 0.17498194 0.26371834 0.38082427 -0.7048599 0.6071238
0.1833201 -0.1935688 0.32068792 -0.27605835 -0.23988158 0.20315598 -0.65787524 0.0007832487
0.025501743 -0.67338145 0.072972186 0.13489002 0.20895806 0.36940363 -0.0050511747 0.641067
0.37909785 -0.37734932 -0.13752308 -0.35689965 0.68623054 0.38432378 0.43801624 -0.52392685
0.43377665 0.51303107 -0.30754578 0.9084949 -0.20976801 -0.1911436 0.044076484 -0.51847535
0.7056744 0.34190518 -0.32490632 0.27953237 -0.3030319 0.473479 -0.393336 0.3560093
-0.29724765 0.32441592 -0.27517548 0.44644022 0.6371334 -0.20483659 0.5469527 0.19985306
0.39207187 -0.36188743 0.030745516 -0.4497572 0.59846365 0.44507068 0.4909738 -0.45661885
-0.3539166 0.5652072 0.4483371 0.42128807 0.3111334 -0.4884623 -0.2175688 0.19731626
-0.09076816 0.362935 -0.14862052 0.87610835 -0.39077485 0.5030071 0.86659896 0.30137688
0.21424267 -0.22402531 -0.26192617 0.14367665 -0.1441965 -0.42490658 0.1872991 0.35215032
0.33777508 -0.13082875 0.3348849 -0.17424326 0.31113628 0.3411795 0.36512136 0.33960223
0.27823457 0.37805358 -0.08146229 0.59712964 -0.32688466 0.21881384 -0.15172474 0.49640706
-0.68967295 0.21678948 -0.14641178 -0.2015547 -0.19120982 -0.013740734 -0.16072258 -0.17570212
-0.17866582 -0.22165905 0.53018504 -0.17077553 0.39619723 0.14063245 -0.3702241 -0.056461122
0.012686472 -0.0069857673 0.47416642 -0.18187569 0.43758804 0.31896633 0.17504224 -0.29606155
0.010734957 -0.014206239 -0.052354116 0.19901437 -0.19397159 0.54377574 0.27332762 0.38466084
0.20555948 -0.1396538 -0.05839634 0.13512892 -0.20920396 0.5363855 -0.45540383 -0.4366394
0.18554164 -0.47875592 -0.3501504 0.015598222 -0.032475654 -0.5800222 0.30594063 0.54726666
-0.10603998 0.13980937 -0.4385639 -0.56066537 0.08404463 0.34844843 0.254348 0.34298387
0.4588518 0.3482403 -0.022254758 -0.06763031 0.34225917 0.0105696125 0.3239228 0.50992507
0.064706 -0.024018062 0.057707783 0.18387023 0.2858732 0.26699123 -0.108466744 -0.057053115
-0.54282457 -0.07647685 -0.27149123 0.35358906 -0.02132842 -0.48205522 -0.27226517 -0.13410291
0.52377695 0.6420486 0.6852841 0.15561047 -0.21721135 -0.109382324 0.21868615 0.04883694
-0.10602302 0.43073398 0.31628966 -0.034434963 0.75822353 -0.12519443 -0.12219152 0.52953947
-0.5756351 -0.42248243 0.016216656 0.3539208 -0.18674898 0.9216942 0.02579769 -0.011945163
0.15729797 -0.0050973287 0.2984975 -0.16701874 -0.09394242 -0.055056464 0.20791814 -0.21501444
0.2559457 -0.020402797 -0.08303324 -0.13991576 0.3815937 0.22675887 -0.24261642 -0.08437841
00000000: c4ae f4be d5f6 ba3e ce2a 66be 6e55 36be
00000010: a48c 2e3f 926a b53e fac3 f53e bd2c 9ebe
00000020: cf74 db3e 9af3 153f e420 b13e 53b4 0a3e
00000030: 6c3d 7a3e 1fbb d93d ae5a b23e ddec bbbe
00000040: a2f7 543e a07a e83e 049a 59be 9150 33bf
00000050: 2ca4 87be 5aff eabe f7b9 cabe 1a9b 983e
00000060: c120 30be d5ef 9b3d 67f4 53be 11fc d23e
00000070: 20b7 cf3e 8462 343f 2a1b b03e d37b b3be
00000080: b2f0 efbe cb06 493e bb87 5b3d 772e 333e
00000090: 1706 873e 66fb c23e b371 34bf 776c 1b3f
000000a0: 44b8 3b3e e636 46be 3531 a43e 8557 8dbe
000000b0: 84a3 75be 1f08 503e 836a 28bf ee52 4d3a
000000c0: 08e9 d03c ba62 2cbf 7172 953d 9c20 0a3e
000000d0: 1af9 553e 7922 bd3e 5384 a5bb f81c 243f
000000e0: 1d19 c23e ee33 c1be dad2 0cbe 8dbb b6be
000000f0: ceac 2f3f 16c6 c43e aa43 e03e 1220 06bf
00000100: f917 de3e 0156 033f a476 9dbe 1f93 683f
00000110: 6dcd 56be 26bb 43be 8b89 343d cdba 04bf
00000120: 14a7 343f 320e af3e 1f5a a6be de1e 8f3e
00000130: ff26 9bbe d76b f23e 5663 c9be da46 b63e
00000140: d830 98be d819 a63e cde3 8cbe d093 e43e
00000150: 2d1b 233f afc0 51be 1805 0c3f 48a6 4c3e
00000160: a5bd c83e 4f49 b9be 05de fb3c 9346 e6be
00000170: ea34 193f 4ee0 e33e eb60 fb3e f2c9 e9be
00000180: 8e34 b5be 6bb1 103f 718c e53e 12b3 d73e
00000190: e14c 9f3e bb17 fabe 5bca 5ebe 460d 4a3e
000001a0: a8e4 b9bd 9ed2 b93e fa2f 18be a348 603f
000001b0: a413 c8be 13c5 003f 6ed9 5d3f 124e 9a3e
000001c0: 6e62 5b3e e466 65be 301b 86be f91f 133e
000001d0: 3fa8 13be 5b8d d9be 56cb 3f3e 0c4d b43e
000001e0: dbf0 ac3e f9f7 05be 0976 ab3e d36c 32be
000001f0: 414d 9f3e 14af ae3e 30f1 ba3e 58e0 ad3e
00000200: c374 8e3e 3d90 c13e b3d5 a6bd 7ddd 183f
00000210: 6d5d a7be bc10 603e bb5d 1bbe 1129 fe3e
00000220: 688e 30bf 10fe 5d3e f8ec 15be 5b64 4ebe
00000230: 82cc 43be d120 61bc 7694 24be 42eb 33be
00000240: 2cf4 36be 97fa 62be 35ba 073f c8df 2ebe
00000250: 5dda ca3e f401 103e 038e bdbe c743 67bd
00000260: ecda 4f3c dde8 e4bb f1c5 f23e 9f3d 3abe
00000270: 8a0b e03e 8e4f a33e 463e 333e 6195 97be
00000280: ace1 2f3c 49c1 68bc 4571 56bd 6cca 4b3e
00000290: 7da0 46be e334 0b3f 99f1 8b3e 44f2 c43e
000002a0: 2f7e 523e 6801 0fbe 0031 6fbd 3c5f 0a3e
000002b0: 9039 56be 8f50 093f b12a e9be 338f dfbe
000002c0: a1fe 3d3e 7f1f f5be ea46 b3be af8f 7f3c
000002d0: 3105 05bd 567c 14bf 40a4 9c3e ab19 0c3f
000002e0: 7d2b d9bd 302a 0f3e 738b e0be c487 0fbf
000002f0: 971f ac3d d567 b23e e739 823e 959b af3e
00000300: a0ee ea3e 8d4c b23e 9c4f b6bc c381 8abd
00000310: 983c af3e 2b2c 2d3c 36d9 a53e 738a 023f
00000320: 9484 843d 87c1 c4bc ff5e 6c3d 7a48 3c3e
00000330: f95d 923e 13b3 883e d023 debd 87b0 69bd
00000340: 8df6 0abf e59f 9cbd e600 8bbe a009 b53e
00000350: f0b8 aebc f1cf f6be 5766 8bbe 4652 09be
00000360: 3f16 063f 4c5d 243f c76e 2f3f 5a58 1f3e
00000370: a76c 5ebe d703 e0bd 43ef 5f3e 3e09 483d
00000380: 9922 d9bd 2a89 dc3e b8f0 a13e ad0b 0dbd
00000390: f01a 423f f832 00be 8c3f fabd e68f 073f
000003a0: d25c 13bf 9e4f d8be cbd8 843c 1b35 b53e
000003b0: 203b 3fbe 27f4 6b3f ad55 d33c a5b5 43bc
000003c0: b812 213e 7e07 a7bb aad4 983e f606 2bbe
000003d0: e264 c0bd e382 61bd 7ee8 543e bf2c 5cbe
000003e0: 510b 833e c423 a7bc 550d aabd 1446 0fbe
000003f0: 4060 c33e 7a33 683e 7070 78be 96ce acbd

l1.bias f4 [8]
0.89552397 0.99299026 0.9616559 0.42716652 0.8965672 0.40211108 0.77688247 0.30049372
00000000: 0f41 653f 9c34 7e3f 152f 763f 92b5 da3e
00000010: 6e85 653f 81e1 cd3e c5e1 463f 50da 993e

l2.weight f4 [8, 8]
1.1523472 1.4887538 -0.17516148 -0.38811156 0.8816088 -0.46223986 -1.5019134 0.63121074
-0.59056824 0.37799156 -0.5074763 1.2868648 1.1106895 0.09441821 -0.8529768 -0.11620351
1.3734516 -0.0025864982 1.1254315 -0.9877167 -0.6760353 0.37129486 1.2175269 0.49464947
-0.41196227 0.019225191 -0.79012007 1.1982743 0.9567683 1.6025941 0.84046954 0.4498342
0.15115958 1.5152406 0.59654605 -0.14258383 1.4439191 -0.16716641 1.0214875 -1.311677
0.40193966 -0.46392018 1.7431844 0.39082333 -0.54538155 -0.30862978 -0.48028526 1.0469764
-0.32681364 -0.22575141 -0.058721665 -0.21354468 -0.054956798 -0.18404213 -0.20521566 0.051229145
1.2912867 -0.6867481 -0.8067281 1.1809422 -0.37298453 1.4950187 0.50919193 1.4797157
00000000: 1d80 933f 7c8f be3f 885d 33be 8fb6 c6be
00000010: 1db1 613f b4aa ecbe b33e c0bf 0797 213f
00000020: 7b2f 17bf 1c88 c13e f7e9 01bf fcb7 a43f
00000030: 132b 8e3f 565e c13d b05c 5abf 1bfc edbd
00000040: 43cd af3f 3d82 29bb 240e 903f 00db 7cbf
00000050: a610 2dbf 5c1a be3e ecd7 9b3f b242 fd3e
00000060: b8ec d2be 267e 9d3c 4f45 4abf 0d61 993f
00000070: c4ee 743f ce21 cd3f 0329 573f ab50 e63e
00000080: 94c9 1a3e 67f3 c13f 3eb7 183f 7f01 12be
00000090: 57d2 b83f ac2d 2bbe 1ac0 823f 08e5 a7bf
000000a0: 09cb cd3e f286 edbe ab20 df3f ff19 c83e
000000b0: 209e 0bbf b904 9ebe f3e7 f5be 5303 863f
000000c0: 1e54 a7be 612b 67be 2186 70bd 75ab 5abe
000000d0: 611a 61bd 8a75 3cbe 0e24 52be a7d5 513d
000000e0: e248 a53f b9ce 2fbf bc85 4ebf 1d29 973f
000000f0: d4f7 bebe c65c bf3f 675a 023f 5367 bd3f

l2.bias f4 [8]
0.6047846 0.43234944 0.7640486 0.27148163 0.8382376 0.7197602 0.039525278 -0.13383369
00000000: 2ad3 1a3f e85c dd3e b098 433f a4ff 8a3e
00000010: bd96 563f 3442 383f 42e5 213d b30b 09be

l3.weight f4 [10, 8]
-1.2786936 -1.2763897 0.23215604 0.42986083 -0.7730844 -1.6923021 0.2995082 0.5903401
0.2688623 1.0188712 -1.4731487 0.2688019 0.65873176 -1.6193901 0.28745124 -1.3606129
-1.1016725 -1.2407835 0.9717713 -1.3541584 0.38802984 0.6991457 0.04059534 -1.8951343
-1.443299 -1.1293718 0.26985088 0.0969111 -1.727582 0.46074638 -0.08392787 0.42440253
0.20630628 -1.54724 0.60925376 -0.31269273 -0.46852416 -0.21545488 -0.26634523 -0.031446382
-0.6106091 -1.4707928 0.105527505 0.6614933 0.53716207 -2.0687191 0.2597105 -1.175738
-1.7712604 0.49108776 -1.3736194 0.8892489 0.14194661 -1.8623327 0.20461784 -0.11910032
0.7198654 -0.6548776 0.32409212 -1.3900766 -1.7442212 0.7832802 0.29783407 -0.005435782
1.0479547 -0.25808302 -0.2490784 -1.6609699 0.5347052 -0.60580665 0.14328033 -1.3282067
-0.36750337 0.39034513 -0.6247135 0.47682488 -1.0778266 0.34037057 -0.16781162 0.004063349
00000000: 3bac a3bf bd60 a3bf 50ba 6d3e b816 dc3e
00000010: dce8 45bf 5b9d d8bf 2459 993e 8720 173f
00000020: 52a8 893e 5f6a 823f 2390 bcbf 67a0 893e
00000030: a5a2 283f 2d48 cfbf cf2c 933e 9028 aebf
00000040: 9b03 8dbf fed1 9ebf 01c6 783f 1055 adbf
00000050: d9ab c63e 36fb 323f 4d47 263d c393 f2bf
00000060: 06be b8bf 418f 90bf e529 8a3e 5479 c63d
00000070: 6821 ddbf f3e6 eb3e 60e2 abbd 4a4b d93e
00000080: f441 533e f60b c6bf 0ef8 1b3f 4319 a0be
00000090: 66e2 efbe 34a0 5cbe 675e 88be eccd 00bd
000000a0: e150 1cbf f042 bcbf ce1e d83d a057 293f
000000b0: 7483 093f e565 04c0 c6f8 843e 957e 96bf
000000c0: a9b8 e2bf db6f fb3e c3d2 afbf d1a5 633f
000000d0: 745a 113e eb60 eebf 5787 513e deea f3bd
000000e0: 1949 383f 0fa6 27bf 67ef a53e 08ee b1bf
000000f0: a442 dfbf 0d85 483f b57d 983e a51e b2bb
00000100: 6123 863f 7523 84be 680e 7fbe a99a d4bf
00000110: 71e2 083f 2516 1bbf 14b8 123e ad02 aabf
00000120: 6729 bcbe 51db c73e 39ed 1fbf 6422 f43e
00000130: 39f6 89bf 0d45 ae3e cfd6 2bbe d825 853b

l3.bias f4 [10]
-0.033631988 -0.15191151 0.24330641 -0.30471292 -0.19018948 0.1950841 -0.3489383 -0.1997434
0.08290902 -0.23385914
00000000: b2c1 09bd b18e 1bbe 5125 793e 5503 9cbe
00000010: 08c1 42be 20c4 473e 0aa8 b2be 8989 4cbe
00000020: 34cc a93d c578 6fbe
